data.pth (torch, 5015 bytes, 6 tensors)

l1.weight f4 [8, 54]
0	0xbe05936c	-0.13044518
1	0xbe2b6cb1	-0.16740681
2	0x3e141892	0.14462498
3	0x3efa7ad7	0.48921844
4	0x3ef92e79	0.48668268
5	0xbe50f6f2	-0.20406702
6	0xbd6fed18	-0.05857572
7	0xbdb2bc69	-0.08727343
8	0xbe5ec85b	-0.21756117
9	0xbe04ef11	-0.12981822
10	0x3f072806	0.52795446
11	0x3ea89563	0.32926473
12	0xbecaa8a9	-0.39581802
13	0x3f1b06d4	0.60557294
14	0xbe28aeb2	-0.16472891
15	0x3da07910	0.07835591
16	0x3f2f49ea	0.6847216
17	0xbe501664	-0.20321041
18	0xbe36cd8c	-0.17851847
19	0x3f4ec0f6	0.80763185
20	0xbe74b790	-0.23898149
21	0x3f68515f	0.9074916
22	0x3f6ac538	0.9170718
23	0x3f7cf0ff	0.9880523
24	0xbdda33f6	-0.10654442
25	0x3f0e7338	0.5564456
26	0xbec15e22	-0.3776713
27	0xbe925563	-0.2858077
28	0xbeea576a	-0.45769817
29	0xbe538a2c	-0.20658177
30	0x3d9c2d0a	0.07625778
31	0x3f1d44cf	0.6143312
32	0x3e7a5221	0.24445392
33	0x3e2de020	0.16980028
34	0xbe38319b	-0.17987673
35	0x3d7c9f4f	0.061675366
36	0xbe87700c	-0.26452672
37	0xbe8fff43	-0.28124437
38	0xbd30b510	-0.043141425
39	0x3bb499e8	0.005511511
40	0xbdddd51b	-0.10831662
41	0xbe071ca8	-0.13194525
42	0x3f080fdf	0.5314922
43	0xbe6ba5da	-0.23012486
44	0x3f069192	0.5256587
45	0xbe8eee91	-0.27916387
46	0xbe953193	-0.29139385
47	0xbdbf5700	-0.09342766
48	0x3e986e05	0.29771438
49	0xbf0713cf	-0.527646
50	0x3d178447	0.036991384
51	0xbdd69e65	-0.1047943
52	0x3cd1fc34	0.025632955
53	0x3e594bab	0.21220271
54	0xbd66edfc	-0.056379303
55	0xbe33686e	-0.17520306
56	0xbf167537	-0.58772606
57	0x3f14a623	0.58066005
58	0x3e2cd30d	0.16877384
59	0x3f11a38a	0.56890166
60	0xbeb86721	-0.3601618
61	0xbe82a5ab	-0.2551702
62	0xbf0c437f	-0.5479049
63	0xbe890219	-0.26759413
64	0x3f1a1bba	0.6019856
65	0x3efd69f2	0.49494892
66	0x3e17af1c	0.14812893
67	0xbed5f6bd	-0.4178981
68	0xbe6acdb9	-0.2293004
69	0x3ec88ef2	0.3917156
70	0x3ec4405b	0.3833035
71	0x3f05d127	0.52272266
72	0xbdadcf30	-0.084867835
73	0x3f367c44	0.71283364
74	0xba06817d	-0.00051309896
75	0x3f3317a1	0.6995793
76	0x3f3a068d	0.72666246
77	0xbd92b621	-0.071636446
78	0x3f06829c	0.52543044
79	0x3f15ea33	0.58560485
80	0xbe9bcb7f	-0.30428693
81	0xbeb56ce2	-0.35434633
82	0xbe372074	-0.17883474
83	0xbeab0c10	-0.3340764
84	0x3f01d9ce	0.5072297
85	0xbed49983	-0.4152337
86	0x3e149f44	0.1451388
87	0xbef35a7e	-0.47529978
88	0x3d07393c	0.033013567
89	0x3f21dbaf	0.63225836
90	0xbe8e0a80	-0.27742386
91	0xbf032021	-0.512209
92	0xbec555cc	-0.3854202
93	0xbe869901	-0.26288608
94	0x3f0583ba	0.52154124
95	0xbea651a0	-0.3248415
96	0x3d88e6f8	0.06684679
97	0xbeb28d46	-0.34873408
98	0xbf0a5c95	-0.5404752
99	0xbe05c884	-0.13064772
100	0xbee87221	-0.45399573
101	0x3b6fab98	0.0036570784
102	0x3e87fde6	0.26560897
103	0xbe4cd3c9	-0.20002665
104	0x3f031161	0.51198393
105	0xbd13e8f2	-0.036110826
106	0xbea55cc4	-0.32297337
107	0xbd10f06f	-0.035385545
108	0xbe7927eb	-0.24331634
109	0x3f604883	0.87610644
110	0x3f0a46f2	0.54014504
111	0xbe6ad1bc	-0.2293157
112	0x3dd3553b	0.10318991
113	0x3f0d5431	0.5520659
114	0x3eb13048	0.34607148
115	0x3ead518e	0.33851284
116	0x3f28ddbd	0.65963346
117	0x3effcf36	0.49962777
118	0xbe872ae7	-0.2639992
119	0x3e95d215	0.29261842
120	0x3f1a3e16	0.60250986
121	0x3f3ab084	0.7292559
122	0x3f30db38	0.690845
123	0x3e988831	0.29791406
124	0xbe87b683	-0.26506433
125	0x3eff1578	0.49821067
126	0xbe997d7e	-0.29978555
127	0xbef3c34e	-0.47609943
128	0xbe7864b9	-0.24257173
129	0xbeec5c7c	-0.4616431
130	0xbeeb4265	-0.45949093
131	0xbe902a14	-0.28157103
132	0x3e61c9b2	0.22049597
133	0xbe26b462	-0.16279748
134	0xbe52ef0d	-0.20599003
135	0x3f431fce	0.76220405
136	0xbb9a8fc8	-0.004716847
137	0x3f18a819	0.59631497
138	0x3eeb918a	0.46009475
139	0x3f2be75f	0.6714992
140	0xbe9e7e81	-0.3095589
141	0x3f0a4434	0.5401032
142	0x3f5ea215	0.8696607
143	0x3e85d84c	0.26141584
144	0xbe20b002	-0.15692142
145	0x3f085d9c	0.53267837
146	0x3ec51fee	0.38500923
147	0x3eba62da	0.36403543
148	0x3ea579f6	0.3231961
149	0xbeae65d3	-0.3406206
150	0x3eddca8d	0.43318596
151	0x3f1f73ca	0.62286055
152	0x3edcdded	0.43138066
153	0x3f785596	0.97005594
154	0xbf431ce1	-0.7621594
155	0xbe8d3221	-0.27577308
156	0xbe2c6e7c	-0.16839021
157	0xbebb07a3	-0.36529264
158	0x3ea2b165	0.31775966
159	0xbe0142cc	-0.12623137
160	0x3e828574	0.25492442
161	0x3ef2d531	0.47428277
162	0xbd94eb75	-0.07271472
163	0xbd04e80d	-0.032447863
164	0xbf2c2c25	-0.6725486
165	0x3dedf98c	0.11619863
166	0x3de5598b	0.111987196
167	0x3f85cc17	1.0452908
168	0xbdb64479	-0.08899779
169	0xbef78991	-0.48347142
170	0xbf1ae1a3	-0.60500544
171	0xbeac1d59	-0.3361614
172	0x3e4a5e62	0.19762567
173	0xbe4ce928	-0.20010817
174	0x3e4bf7da	0.19918767
175	0xbe93de9e	-0.2888078
176	0xbd859bea	-0.06523879
177	0xbe1e6c09	-0.154709
178	0x3cba8116	0.022766631
179	0x3f80f6ab	1.0075277
180	0x3f204dd6	0.6261877
181	0xbd8c50af	-0.06851327
182	0xbe80e885	-0.25177398
183	0xbe41119a	-0.1885437
184	0xbe673e52	-0.22582367
185	0x3e953281	0.29140094
186	0xbe627ac0	-0.22117138
187	0x3d804cd9	0.062646575
188	0x3f32c2c7	0.69828457
189	0xbcc9456b	-0.024569234
190	0x3ec38d51	0.38193753
191	0x3d729e68	0.0592331
192	0x3f5e0002	0.8671876
193	0xbddd3b5c	-0.108023375
194	0x3f0b68ce	0.54456794
195	0xbeed7765	-0.46380153
196	0xbda639cd	-0.081164934
197	0xbe206eb6	-0.15667233
198	0x3ee115d5	0.4396197
199	0xbecdfa31	-0.40229943
200	0xbe59a645	-0.21254833
201	0xbdac5367	-0.08414345
202	0x3f20a891	0.6275721
203	0x3f189f26	0.5961784
204	0xbe4b959f	-0.19881295
205	0x3d535f43	0.05160452
206	0xbee9459d	-0.45560923
207	0x3dd2de39	0.10296292
208	0xbed6c30c	-0.41945684
209	0xbe38afe6	-0.1803585
210	0x3f0e12f8	0.55497694
211	0x3f537e79	0.82614857
212	0xbe6fe9c2	-0.23429015
213	0x3ef97693	0.48723277
214	0xbe1c9e38	-0.1529473
215	0x3ea1e671	0.31621125
216	0x3f0273ca	0.5095793
217	0x3edfd3e9	0.43716362
218	0x3f2163da	0.63042986
219	0x3e61644b	0.22010915
220	0x3e8a789e	0.2704515
221	0xbf3f0feb	-0.74633664
222	0x3f0d2dee	0.5514821
223	0x3f063c3e	0.5243567
224	0x3f413b5d	0.75481206
225	0x3f27c4ac	0.6553447
226	0x3e16ff48	0.1474582
227	0xbe940096	-0.28906697
228	0x3e8794f6	0.26480836
229	0xbebd8556	-0.3701579
230	0x3e525783	0.20541196
231	0xbe945dcd	-0.28977814
232	0x3d8eac40	0.06966448
233	0xbf45de99	-0.7729278
234	0xbe3c2413	-0.18373136
235	0x3d5b69a6	0.05356755
236	0x3ea58eee	0.3233561
237	0x3d9cd5b8	0.07657951
238	0x3df7568b	0.12077054
239	0xbeddc228	-0.43312192
240	0x3e85474c	0.26030958
241	0x3e49d3cf	0.19709705
242	0x3b9e0cf2	0.0048233205
243	0x3a956dcc	0.001140052
244	0xbe2b6cc4	-0.1674071
245	0xbb4b00a7	-0.003097573
246	0xbf17d714	-0.5931256
247	0xbe5c605d	-0.21521135
248	0x3ee1fc61	0.44137862
249	0x3f194cd2	0.59882843
250	0x3e95705c	0.29187286
251	0xbecaf66b	-0.39641127
252	0xbc9003c2	-0.017579917
253	0x3f3a90b0	0.72877026
254	0x3f0e5f19	0.5561386
255	0x3ece4563	0.40287313

l1.bias f4 [8]
0	0x3f57d7ae	0.84313476
1	0x3f734aad	0.9503582
2	0x3f4300ae	0.7617291
3	0x3f427ba9	0.7596994
4	0x3f45e0ed	0.77296335
5	0x3f2320a8	0.63721704
6	0x3f07d554	0.5305989
7	0x3f0a31b0	0.5398207

l2.weight f4 [8, 8]
0	0xbf7dc1cb	-0.9912383
1	0x3d8ae740	0.06782389
2	0xbef0709f	-0.46960923
3	0x3f1e80d6	0.6191534
4	0x3ef01b90	0.4689603
5	0x3db1f6e0	0.08689666
6	0x3f88e93d	1.0696179
7	0x3f07ca20	0.53042793
8	0x3f589f57	0.84618133
9	0xbf46ac9e	-0.7760714
10	0x3f08dd8b	0.5346305
11	0xbf8a93be	-1.0826337
12	0xbf562e0a	-0.83664
13	0xbf3f8b10	-0.7482157
14	0x3f10ddd3	0.56588477
15	0x3f617210	0.8806467
16	0x3f7d6726	0.9898552
17	0x3f07aae3	0.5299513
18	0xbf2d1603	-0.6761171
19	0xbf47ea5b	-0.78091973
20	0x3fb81382	1.4380953
21	0x3f9f913f	1.24662
22	0x3f9d8776	1.2306964
23	0x3fa7ed40	1.3119278
24	0xbf2a517c	-0.66530585
25	0x3f859793	1.0436882
26	0x3f5194f1	0.8186789
27	0x3f92c4bd	1.146629
28	0xbe43a643	-0.19106393
29	0xbf46631a	-0.77494967
30	0x3edfbf9f	0.43700883
31	0xbf62465a	-0.883886
32	0x3f7c3c12	0.9852916
33	0x3fa5f9aa	1.2966816
34	0x3d2c0b07	0.042002704
35	0x3ecd1f78	0.4006307
36	0xbf0c630a	-0.5483862
37	0x3f459bc9	0.77190834
38	0xbf4c5f45	-0.7983287
39	0xbd509fa1	-0.050933484
40	0x3e17b23f	0.14814089
41	0xbe304881	-0.17215158
42	0xbe7e692d	-0.24844809
43	0x3da9c9a8	0.08290416
44	0xbddf19d0	-0.10893595
45	0x3e7e2e95	0.24822457
46	0xbe7dbdbe	-0.24779412
47	0xbead23e1	-0.33816436
48	0xbf13d4c7	-0.5774655
49	0xbe0962c0	-0.13416576
50	0x3fb9999b	1.4500002
51	0xbf3f2820	-0.746706
52	0x3f9d2203	1.2276005
53	0x3ed1371b	0.40862355
54	0xbf3ef404	-0.7459109
55	0xbf3cefb8	-0.7380328
56	0x3d4bad4c	0.049725816
57	0x3f219a96	0.63126504
58	0x3f015a63	0.50528544
59	0xbf66a7f5	-0.9010003
60	0xbf6ecf11	-0.9328471
61	0x3f2f4ef3	0.6847984
62	0xbee21a18	-0.44160533
63	0xbedd79c9	-0.43256977

l2.bias f4 [8]
0	0xbd866e5b	-0.065640174
1	0x3c689327	0.01419524
2	0x3f15996b	0.5843722
3	0x3ea3a264	0.31959832
4	0x3e06250a	0.13100067
5	0xbea71a7a	-0.32637388
6	0x3f327d00	0.69721985
7	0xbe09b57d	-0.13448139

l3.weight f4 [7, 8]
0	0xbf852d72	-1.0404494
1	0x3f73952c	0.95149493
2	0xbdccbb47	-0.09996658
3	0xbf2a8b5c	-0.66618896
4	0x3dd4d149	0.103914805
5	0xbea31672	-0.31853062
6	0xbf052387	-0.52007335
7	0x3f8e3c55	1.1112162
8	0xbefe195c	-0.49628723
9	0xbede40d9	-0.4340885
10	0xbf9ca78f	-1.2238635
11	0xbdf2ee1b	-0.11861821
12	0xbf6877cd	-0.908078
13	0x3e5c7ee9	0.21532787
14	0x3f3fe8e2	0.74964726
15	0xbf2d9b2c	-0.678149
16	0xbf7d9eef	-0.9907064
17	0xbed02911	-0.4065633
18	0xbf4e8689	-0.80674034
19	0x3f06b327	0.52617115
20	0x3f1d3813	0.6141369
21	0xbe9afff9	-0.30273417
22	0xbef6c12d	-0.48194256
23	0xbf8b1221	-1.0864908
24	0xbfc8ac0d	-1.5677506
25	0xbf45324a	-0.7702986
26	0x3ecb6671	0.39726594
27	0xbf9d6ae3	-1.2298244
28	0x3f3a536a	0.7278353
29	0x3e1b0d27	0.15141736
30	0xbf86bbc4	-1.0526052
31	0xbf7753fc	-0.96612525
32	0x3f3a7fe0	0.7285137
33	0xbf1dfd9e	-0.61715114
34	0xbeeeaaf2	-0.46614796
35	0x3f19d9e3	0.60098094
36	0xbfbc027a	-1.4688256
37	0x3da1a65d	0.078930594
38	0xbf8b990e	-1.0906084
39	0xbf09543d	-0.5364416
40	0xbf9624c6	-1.1729972
41	0xbe35dc39	-0.1775979
42	0x3de0859e	0.109629855
43	0xbfbff21e	-1.4995763
44	0xbf871b72	-1.0555251
45	0xbc2c6b46	-0.010523623
46	0x3f2f5b1d	0.684984
47	0xbe00aef6	-0.12566742
48	0x3ecf7e6e	0.40526146
49	0xbf4e801e	-0.8066424
50	0x3f232ca7	0.6374001
51	0xbf9bc4c9	-1.2169429
52	0xbfbf8fbd	-1.496574
53	0x3d7b2e2d	0.061323334
54	0xbf4948e7	-0.78626865
55	0xbf0c0b34	-0.54704595

l3.bias f4 [7]
0	0xbf2d6b79	-0.67742115
1	0x3e9f56b6	0.31120843
2	0x3b8c54ad	0.004282555
3	0x3e6c1b4f	0.23057292
4	0x3ae2b78d	0.0017297134
5	0xbe274e6c	-0.1633851
6	0xbe9dcf27	-0.30822107
